#loc = loc("/home/ljp/llm/Diffulex/tmp/torchinductor_ljp/5n/c5nuhmuoirxqwdt7icoc45m2mzoeuwkqvsc457s7nwdz5j37z4hh.py":19:0)
#loc1 = loc(unknown)
#loc24 = loc("/home/ljp/llm/Diffulex/tmp/torchinductor_ljp/5n/c5nuhmuoirxqwdt7icoc45m2mzoeuwkqvsc457s7nwdz5j37z4hh.py":41:25)
#loc54 = loc(callsite(#loc1 at #loc24))
module {
  tt.func public @triton_red_fused__to_copy_add_mean_mul_pow_rsqrt_0(%arg0: !tt.ptr<bf16> {tt.divisibility = 16 : i32} loc("/home/ljp/llm/Diffulex/tmp/torchinductor_ljp/5n/c5nuhmuoirxqwdt7icoc45m2mzoeuwkqvsc457s7nwdz5j37z4hh.py":19:0), %arg1: !tt.ptr<bf16> {tt.divisibility = 16 : i32} loc("/home/ljp/llm/Diffulex/tmp/torchinductor_ljp/5n/c5nuhmuoirxqwdt7icoc45m2mzoeuwkqvsc457s7nwdz5j37z4hh.py":19:0), %arg2: !tt.ptr<bf16> {tt.divisibility = 16 : i32} loc("/home/ljp/llm/Diffulex/tmp/torchinductor_ljp/5n/c5nuhmuoirxqwdt7icoc45m2mzoeuwkqvsc457s7nwdz5j37z4hh.py":19:0), %arg3: !tt.ptr<bf16> {tt.divisibility = 16 : i32} loc("/home/ljp/llm/Diffulex/tmp/torchinductor_ljp/5n/c5nuhmuoirxqwdt7icoc45m2mzoeuwkqvsc457s7nwdz5j37z4hh.py":19:0), %arg4: !tt.ptr<bf16> {tt.divisibility = 16 : i32} loc("/home/ljp/llm/Diffulex/tmp/torchinductor_ljp/5n/c5nuhmuoirxqwdt7icoc45m2mzoeuwkqvsc457s7nwdz5j37z4hh.py":19:0), %arg5: i32 {tt.divisibility = 16 : i32} loc("/home/ljp/llm/Diffulex/tmp/torchinductor_ljp/5n/c5nuhmuoirxqwdt7icoc45m2mzoeuwkqvsc457s7nwdz5j37z4hh.py":19:0), %arg6: i32 {tt.divisibility = 16 : i32} loc("/home/ljp/llm/Diffulex/tmp/torchinductor_ljp/5n/c5nuhmuoirxqwdt7icoc45m2mzoeuwkqvsc457s7nwdz5j37z4hh.py":19:0)) attributes {noinline = false} {
    %c64_i32 = arith.constant 64 : i32 loc(#loc1)
    %cst = arith.constant dense<0.000000e+00> : tensor<1x2048xbf16> loc(#loc1)
    %c2048_i32 = arith.constant 2048 : i32 loc(#loc1)
    %c3584_i32 = arith.constant 3584 : i32 loc(#loc1)
    %c0_i32 = arith.constant 0 : i32 loc(#loc1)
    %cst_0 = arith.constant dense<9.99999997E-7> : tensor<1x1xf32> loc(#loc1)
    %cst_1 = arith.constant dense<3.584000e+03> : tensor<1x1xf32> loc(#loc1)
    %cst_2 = arith.constant dense<3584> : tensor<1x2048xi32> loc(#loc1)
    %cst_3 = arith.constant dense<0.000000e+00> : tensor<1x2048xf32> loc(#loc1)
    %0 = tt.get_program_id x : i32 loc(#loc2)
    %1 = arith.cmpi slt, %0, %c64_i32 : i32 loc(#loc3)
    %2 = tt.make_range {end = 2048 : i32, start = 0 : i32} : tensor<2048xi32> loc(#loc4)
    %3 = tt.expand_dims %2 {axis = 0 : i32} : tensor<2048xi32> -> tensor<1x2048xi32> loc(#loc5)
    %4 = arith.muli %0, %c3584_i32 : i32 loc(#loc6)
    %5 = tt.splat %4 : i32 -> tensor<1x2048xi32> loc(#loc7)
    %6 = tt.splat %arg0 : !tt.ptr<bf16> -> tensor<1x2048x!tt.ptr<bf16>> loc(#loc8)
    %7 = tt.splat %1 : i1 -> tensor<1x2048xi1> loc(#loc9)
    %8 = tt.splat %arg1 : !tt.ptr<bf16> -> tensor<1x2048x!tt.ptr<bf16>> loc(#loc10)
    %9 = scf.for %arg7 = %c0_i32 to %c3584_i32 step %c2048_i32 iter_args(%arg8 = %cst_3) -> (tensor<1x2048xf32>)  : i32 {
      %24 = tt.splat %arg7 : i32 -> tensor<1x2048xi32> loc(#loc12)
      %25 = arith.addi %24, %3 : tensor<1x2048xi32> loc(#loc12)
      %26 = arith.cmpi slt, %25, %cst_2 : tensor<1x2048xi32> loc(#loc13)
      %27 = arith.addi %25, %5 : tensor<1x2048xi32> loc(#loc7)
      %28 = tt.addptr %6, %27 : tensor<1x2048x!tt.ptr<bf16>>, tensor<1x2048xi32> loc(#loc8)
      %29 = arith.andi %26, %7 : tensor<1x2048xi1> loc(#loc9)
      %30 = tt.load %28, %29, %cst evictionPolicy = evict_last : tensor<1x2048x!tt.ptr<bf16>> loc(#loc14)
      %31 = arith.extf %30 : tensor<1x2048xbf16> to tensor<1x2048xf32> loc(#loc15)
      %32 = tt.addptr %8, %27 : tensor<1x2048x!tt.ptr<bf16>>, tensor<1x2048xi32> loc(#loc10)
      %33 = tt.load %32, %29, %cst evictionPolicy = evict_last : tensor<1x2048x!tt.ptr<bf16>> loc(#loc16)
      %34 = arith.extf %33 : tensor<1x2048xbf16> to tensor<1x2048xf32> loc(#loc17)
      %35 = arith.addf %31, %34 : tensor<1x2048xf32> loc(#loc18)
      %36 = arith.mulf %35, %35 : tensor<1x2048xf32> loc(#loc19)
      %37 = arith.addf %arg8, %36 : tensor<1x2048xf32> loc(#loc20)
      %38 = arith.select %29, %37, %arg8 : tensor<1x2048xi1>, tensor<1x2048xf32> loc(#loc21)
      scf.yield %38 : tensor<1x2048xf32> loc(#loc22)
    } loc(#loc11)
    %10 = "tt.reduce"(%9) <{axis = 1 : i32}> ({
    ^bb0(%arg7: f32 loc(callsite(#loc1 at #loc24)), %arg8: f32 loc(callsite(#loc1 at #loc24))):
      %24 = arith.addf %arg7, %arg8 : f32 loc(#loc56)
      tt.reduce.return %24 : f32 loc(#loc53)
    }) : (tensor<1x2048xf32>) -> tensor<1xf32> loc(#loc53)
    %11 = tt.expand_dims %10 {axis = 1 : i32} : tensor<1xf32> -> tensor<1x1xf32> loc(#loc26)
    %12 = arith.muli %0, %c3584_i32 : i32 loc(#loc27)
    %13 = tt.splat %12 : i32 -> tensor<1x2048xi32> loc(#loc28)
    %14 = tt.splat %arg0 : !tt.ptr<bf16> -> tensor<1x2048x!tt.ptr<bf16>> loc(#loc29)
    %15 = tt.splat %1 : i1 -> tensor<1x2048xi1> loc(#loc30)
    %16 = tt.splat %arg1 : !tt.ptr<bf16> -> tensor<1x2048x!tt.ptr<bf16>> loc(#loc31)
    %17 = tt.splat %arg2 : !tt.ptr<bf16> -> tensor<1x2048x!tt.ptr<bf16>> loc(#loc32)
    %18 = arith.divf %11, %cst_1 : tensor<1x1xf32> loc(#loc33)
    %19 = arith.addf %18, %cst_0 : tensor<1x1xf32> loc(#loc34)
    %20 = tt.extern_elementwise %19 {libname = "", libpath = "", pure = true, symbol = "__nv_rsqrtf"} : (tensor<1x1xf32>) -> tensor<1x1xf32> loc(#loc35)
    %21 = tt.broadcast %20 : tensor<1x1xf32> -> tensor<1x2048xf32> loc(#loc36)
    %22 = tt.splat %arg3 : !tt.ptr<bf16> -> tensor<1x2048x!tt.ptr<bf16>> loc(#loc37)
    %23 = tt.splat %arg4 : !tt.ptr<bf16> -> tensor<1x2048x!tt.ptr<bf16>> loc(#loc38)
    scf.for %arg7 = %c0_i32 to %c3584_i32 step %c2048_i32  : i32 {
      %24 = tt.splat %arg7 : i32 -> tensor<1x2048xi32> loc(#loc40)
      %25 = arith.addi %24, %3 : tensor<1x2048xi32> loc(#loc40)
      %26 = arith.cmpi slt, %25, %cst_2 : tensor<1x2048xi32> loc(#loc41)
      %27 = arith.addi %25, %13 : tensor<1x2048xi32> loc(#loc28)
      %28 = tt.addptr %14, %27 : tensor<1x2048x!tt.ptr<bf16>>, tensor<1x2048xi32> loc(#loc29)
      %29 = arith.andi %26, %15 : tensor<1x2048xi1> loc(#loc30)
      %30 = tt.load %28, %29, %cst evictionPolicy = evict_first : tensor<1x2048x!tt.ptr<bf16>> loc(#loc42)
      %31 = arith.extf %30 : tensor<1x2048xbf16> to tensor<1x2048xf32> loc(#loc43)
      %32 = tt.addptr %16, %27 : tensor<1x2048x!tt.ptr<bf16>>, tensor<1x2048xi32> loc(#loc31)
      %33 = tt.load %32, %29, %cst evictionPolicy = evict_first : tensor<1x2048x!tt.ptr<bf16>> loc(#loc44)
      %34 = arith.extf %33 : tensor<1x2048xbf16> to tensor<1x2048xf32> loc(#loc45)
      %35 = tt.addptr %17, %25 : tensor<1x2048x!tt.ptr<bf16>>, tensor<1x2048xi32> loc(#loc32)
      %36 = tt.load %35, %26, %cst evictionPolicy = evict_last : tensor<1x2048x!tt.ptr<bf16>> loc(#loc46)
      %37 = arith.extf %36 : tensor<1x2048xbf16> to tensor<1x2048xf32> loc(#loc47)
      %38 = arith.addf %31, %34 : tensor<1x2048xf32> loc(#loc48)
      %39 = arith.mulf %38, %21 : tensor<1x2048xf32> loc(#loc36)
      %40 = arith.mulf %39, %37 : tensor<1x2048xf32> loc(#loc49)
      %41 = tt.addptr %22, %27 : tensor<1x2048x!tt.ptr<bf16>>, tensor<1x2048xi32> loc(#loc37)
      %42 = arith.truncf %40 : tensor<1x2048xf32> to tensor<1x2048xbf16> loc(#loc50)
      tt.store %41, %42, %29 : tensor<1x2048x!tt.ptr<bf16>> loc(#loc50)
      %43 = tt.addptr %23, %27 : tensor<1x2048x!tt.ptr<bf16>>, tensor<1x2048xi32> loc(#loc38)
      %44 = arith.truncf %38 : tensor<1x2048xf32> to tensor<1x2048xbf16> loc(#loc51)
      tt.store %43, %44, %29 : tensor<1x2048x!tt.ptr<bf16>> loc(#loc51)
    } loc(#loc39)
    tt.return loc(#loc52)
  } loc(#loc)
} loc(#loc)
#loc2 = loc("/home/ljp/llm/Diffulex/tmp/torchinductor_ljp/5n/c5nuhmuoirxqwdt7icoc45m2mzoeuwkqvsc457s7nwdz5j37z4hh.py":22:28)
#loc3 = loc("/home/ljp/llm/Diffulex/tmp/torchinductor_ljp/5n/c5nuhmuoirxqwdt7icoc45m2mzoeuwkqvsc457s7nwdz5j37z4hh.py":24:21)
#loc4 = loc("/home/ljp/llm/Diffulex/tmp/torchinductor_ljp/5n/c5nuhmuoirxqwdt7icoc45m2mzoeuwkqvsc457s7nwdz5j37z4hh.py":25:25)
#loc5 = loc("/home/ljp/llm/Diffulex/tmp/torchinductor_ljp/5n/c5nuhmuoirxqwdt7icoc45m2mzoeuwkqvsc457s7nwdz5j37z4hh.py":25:33)
#loc6 = loc("/home/ljp/llm/Diffulex/tmp/torchinductor_ljp/5n/c5nuhmuoirxqwdt7icoc45m2mzoeuwkqvsc457s7nwdz5j37z4hh.py":32:44)
#loc7 = loc("/home/ljp/llm/Diffulex/tmp/torchinductor_ljp/5n/c5nuhmuoirxqwdt7icoc45m2mzoeuwkqvsc457s7nwdz5j37z4hh.py":32:39)
#loc8 = loc("/home/ljp/llm/Diffulex/tmp/torchinductor_ljp/5n/c5nuhmuoirxqwdt7icoc45m2mzoeuwkqvsc457s7nwdz5j37z4hh.py":32:34)
#loc9 = loc("/home/ljp/llm/Diffulex/tmp/torchinductor_ljp/5n/c5nuhmuoirxqwdt7icoc45m2mzoeuwkqvsc457s7nwdz5j37z4hh.py":32:57)
#loc10 = loc("/home/ljp/llm/Diffulex/tmp/torchinductor_ljp/5n/c5nuhmuoirxqwdt7icoc45m2mzoeuwkqvsc457s7nwdz5j37z4hh.py":33:34)
#loc11 = loc("/home/ljp/llm/Diffulex/tmp/torchinductor_ljp/5n/c5nuhmuoirxqwdt7icoc45m2mzoeuwkqvsc457s7nwdz5j37z4hh.py":28:36)
#loc12 = loc("/home/ljp/llm/Diffulex/tmp/torchinductor_ljp/5n/c5nuhmuoirxqwdt7icoc45m2mzoeuwkqvsc457s7nwdz5j37z4hh.py":29:27)
#loc13 = loc("/home/ljp/llm/Diffulex/tmp/torchinductor_ljp/5n/c5nuhmuoirxqwdt7icoc45m2mzoeuwkqvsc457s7nwdz5j37z4hh.py":30:25)
#loc14 = loc("/home/ljp/llm/Diffulex/tmp/torchinductor_ljp/5n/c5nuhmuoirxqwdt7icoc45m2mzoeuwkqvsc457s7nwdz5j37z4hh.py":32:49)
#loc15 = loc("/home/ljp/llm/Diffulex/tmp/torchinductor_ljp/5n/c5nuhmuoirxqwdt7icoc45m2mzoeuwkqvsc457s7nwdz5j37z4hh.py":32:108)
#loc16 = loc("/home/ljp/llm/Diffulex/tmp/torchinductor_ljp/5n/c5nuhmuoirxqwdt7icoc45m2mzoeuwkqvsc457s7nwdz5j37z4hh.py":33:49)
#loc17 = loc("/home/ljp/llm/Diffulex/tmp/torchinductor_ljp/5n/c5nuhmuoirxqwdt7icoc45m2mzoeuwkqvsc457s7nwdz5j37z4hh.py":33:108)
#loc18 = loc("/home/ljp/llm/Diffulex/tmp/torchinductor_ljp/5n/c5nuhmuoirxqwdt7icoc45m2mzoeuwkqvsc457s7nwdz5j37z4hh.py":36:22)
#loc19 = loc("/home/ljp/llm/Diffulex/tmp/torchinductor_ljp/5n/c5nuhmuoirxqwdt7icoc45m2mzoeuwkqvsc457s7nwdz5j37z4hh.py":37:22)
#loc20 = loc("/home/ljp/llm/Diffulex/tmp/torchinductor_ljp/5n/c5nuhmuoirxqwdt7icoc45m2mzoeuwkqvsc457s7nwdz5j37z4hh.py":39:23)
#loc21 = loc("/home/ljp/llm/Diffulex/tmp/torchinductor_ljp/5n/c5nuhmuoirxqwdt7icoc45m2mzoeuwkqvsc457s7nwdz5j37z4hh.py":40:46)
#loc22 = loc("/home/ljp/llm/Diffulex/tmp/torchinductor_ljp/5n/c5nuhmuoirxqwdt7icoc45m2mzoeuwkqvsc457s7nwdz5j37z4hh.py":40:8)
#loc23 = loc("/home/ljp/llm/Diffulex/.venv/lib/python3.12/site-packages/triton/language/standard.py":267:36)
#loc25 = loc("/home/ljp/llm/Diffulex/.venv/lib/python3.12/site-packages/triton/language/standard.py":256:15)
#loc26 = loc("/home/ljp/llm/Diffulex/tmp/torchinductor_ljp/5n/c5nuhmuoirxqwdt7icoc45m2mzoeuwkqvsc457s7nwdz5j37z4hh.py":41:28)
#loc27 = loc("/home/ljp/llm/Diffulex/tmp/torchinductor_ljp/5n/c5nuhmuoirxqwdt7icoc45m2mzoeuwkqvsc457s7nwdz5j37z4hh.py":46:44)
#loc28 = loc("/home/ljp/llm/Diffulex/tmp/torchinductor_ljp/5n/c5nuhmuoirxqwdt7icoc45m2mzoeuwkqvsc457s7nwdz5j37z4hh.py":46:39)
#loc29 = loc("/home/ljp/llm/Diffulex/tmp/torchinductor_ljp/5n/c5nuhmuoirxqwdt7icoc45m2mzoeuwkqvsc457s7nwdz5j37z4hh.py":46:34)
#loc30 = loc("/home/ljp/llm/Diffulex/tmp/torchinductor_ljp/5n/c5nuhmuoirxqwdt7icoc45m2mzoeuwkqvsc457s7nwdz5j37z4hh.py":46:57)
#loc31 = loc("/home/ljp/llm/Diffulex/tmp/torchinductor_ljp/5n/c5nuhmuoirxqwdt7icoc45m2mzoeuwkqvsc457s7nwdz5j37z4hh.py":47:35)
#loc32 = loc("/home/ljp/llm/Diffulex/tmp/torchinductor_ljp/5n/c5nuhmuoirxqwdt7icoc45m2mzoeuwkqvsc457s7nwdz5j37z4hh.py":48:35)
#loc33 = loc("/home/ljp/llm/Diffulex/tmp/torchinductor_ljp/5n/c5nuhmuoirxqwdt7icoc45m2mzoeuwkqvsc457s7nwdz5j37z4hh.py":53:23)
#loc34 = loc("/home/ljp/llm/Diffulex/tmp/torchinductor_ljp/5n/c5nuhmuoirxqwdt7icoc45m2mzoeuwkqvsc457s7nwdz5j37z4hh.py":55:24)
#loc35 = loc("/home/ljp/llm/Diffulex/tmp/torchinductor_ljp/5n/c5nuhmuoirxqwdt7icoc45m2mzoeuwkqvsc457s7nwdz5j37z4hh.py":56:32)
#loc36 = loc("/home/ljp/llm/Diffulex/tmp/torchinductor_ljp/5n/c5nuhmuoirxqwdt7icoc45m2mzoeuwkqvsc457s7nwdz5j37z4hh.py":57:24)
#loc37 = loc("/home/ljp/llm/Diffulex/tmp/torchinductor_ljp/5n/c5nuhmuoirxqwdt7icoc45m2mzoeuwkqvsc457s7nwdz5j37z4hh.py":61:29)
#loc38 = loc("/home/ljp/llm/Diffulex/tmp/torchinductor_ljp/5n/c5nuhmuoirxqwdt7icoc45m2mzoeuwkqvsc457s7nwdz5j37z4hh.py":62:29)
#loc39 = loc("/home/ljp/llm/Diffulex/tmp/torchinductor_ljp/5n/c5nuhmuoirxqwdt7icoc45m2mzoeuwkqvsc457s7nwdz5j37z4hh.py":42:36)
#loc40 = loc("/home/ljp/llm/Diffulex/tmp/torchinductor_ljp/5n/c5nuhmuoirxqwdt7icoc45m2mzoeuwkqvsc457s7nwdz5j37z4hh.py":43:27)
#loc41 = loc("/home/ljp/llm/Diffulex/tmp/torchinductor_ljp/5n/c5nuhmuoirxqwdt7icoc45m2mzoeuwkqvsc457s7nwdz5j37z4hh.py":44:25)
#loc42 = loc("/home/ljp/llm/Diffulex/tmp/torchinductor_ljp/5n/c5nuhmuoirxqwdt7icoc45m2mzoeuwkqvsc457s7nwdz5j37z4hh.py":46:49)
#loc43 = loc("/home/ljp/llm/Diffulex/tmp/torchinductor_ljp/5n/c5nuhmuoirxqwdt7icoc45m2mzoeuwkqvsc457s7nwdz5j37z4hh.py":46:109)
#loc44 = loc("/home/ljp/llm/Diffulex/tmp/torchinductor_ljp/5n/c5nuhmuoirxqwdt7icoc45m2mzoeuwkqvsc457s7nwdz5j37z4hh.py":47:50)
#loc45 = loc("/home/ljp/llm/Diffulex/tmp/torchinductor_ljp/5n/c5nuhmuoirxqwdt7icoc45m2mzoeuwkqvsc457s7nwdz5j37z4hh.py":47:110)
#loc46 = loc("/home/ljp/llm/Diffulex/tmp/torchinductor_ljp/5n/c5nuhmuoirxqwdt7icoc45m2mzoeuwkqvsc457s7nwdz5j37z4hh.py":48:40)
#loc47 = loc("/home/ljp/llm/Diffulex/tmp/torchinductor_ljp/5n/c5nuhmuoirxqwdt7icoc45m2mzoeuwkqvsc457s7nwdz5j37z4hh.py":48:91)
#loc48 = loc("/home/ljp/llm/Diffulex/tmp/torchinductor_ljp/5n/c5nuhmuoirxqwdt7icoc45m2mzoeuwkqvsc457s7nwdz5j37z4hh.py":51:24)
#loc49 = loc("/home/ljp/llm/Diffulex/tmp/torchinductor_ljp/5n/c5nuhmuoirxqwdt7icoc45m2mzoeuwkqvsc457s7nwdz5j37z4hh.py":59:24)
#loc50 = loc("/home/ljp/llm/Diffulex/tmp/torchinductor_ljp/5n/c5nuhmuoirxqwdt7icoc45m2mzoeuwkqvsc457s7nwdz5j37z4hh.py":61:51)
#loc51 = loc("/home/ljp/llm/Diffulex/tmp/torchinductor_ljp/5n/c5nuhmuoirxqwdt7icoc45m2mzoeuwkqvsc457s7nwdz5j37z4hh.py":62:51)
#loc52 = loc("/home/ljp/llm/Diffulex/tmp/torchinductor_ljp/5n/c5nuhmuoirxqwdt7icoc45m2mzoeuwkqvsc457s7nwdz5j37z4hh.py":42:4)
#loc53 = loc(callsite(#loc23 at #loc24))
#loc55 = loc(callsite(#loc25 at #loc23))
#loc56 = loc(callsite(#loc55 at #loc24))
