#loc = loc("/home/ljp/llm/Diffulex/tmp/torchinductor_ljp/gq/cgq7hprqcvvvjblx2eovzw3mw6aprhfnjbb4qmyda5obhdaw4sts.py":19:0)
#loc1 = loc(unknown)
#loc20 = loc("/home/ljp/llm/Diffulex/tmp/torchinductor_ljp/gq/cgq7hprqcvvvjblx2eovzw3mw6aprhfnjbb4qmyda5obhdaw4sts.py":38:25)
#loc44 = loc(callsite(#loc1 at #loc20))
module {
  tt.func public @triton_red_fused__to_copy_add_mean_mul_pow_rsqrt_0(%arg0: !tt.ptr<bf16> {tt.divisibility = 16 : i32} loc("/home/ljp/llm/Diffulex/tmp/torchinductor_ljp/gq/cgq7hprqcvvvjblx2eovzw3mw6aprhfnjbb4qmyda5obhdaw4sts.py":19:0), %arg1: !tt.ptr<bf16> {tt.divisibility = 16 : i32} loc("/home/ljp/llm/Diffulex/tmp/torchinductor_ljp/gq/cgq7hprqcvvvjblx2eovzw3mw6aprhfnjbb4qmyda5obhdaw4sts.py":19:0), %arg2: !tt.ptr<bf16> {tt.divisibility = 16 : i32} loc("/home/ljp/llm/Diffulex/tmp/torchinductor_ljp/gq/cgq7hprqcvvvjblx2eovzw3mw6aprhfnjbb4qmyda5obhdaw4sts.py":19:0), %arg3: i32 {tt.divisibility = 16 : i32} loc("/home/ljp/llm/Diffulex/tmp/torchinductor_ljp/gq/cgq7hprqcvvvjblx2eovzw3mw6aprhfnjbb4qmyda5obhdaw4sts.py":19:0), %arg4: i32 {tt.divisibility = 16 : i32} loc("/home/ljp/llm/Diffulex/tmp/torchinductor_ljp/gq/cgq7hprqcvvvjblx2eovzw3mw6aprhfnjbb4qmyda5obhdaw4sts.py":19:0)) attributes {noinline = false} {
    %c64_i32 = arith.constant 64 : i32 loc(#loc1)
    %cst = arith.constant dense<0.000000e+00> : tensor<1x2048xbf16> loc(#loc1)
    %c2048_i32 = arith.constant 2048 : i32 loc(#loc1)
    %c3584_i32 = arith.constant 3584 : i32 loc(#loc1)
    %c0_i32 = arith.constant 0 : i32 loc(#loc1)
    %cst_0 = arith.constant dense<9.99999997E-7> : tensor<1x1xf32> loc(#loc1)
    %cst_1 = arith.constant dense<3.584000e+03> : tensor<1x1xf32> loc(#loc1)
    %cst_2 = arith.constant dense<3584> : tensor<1x2048xi32> loc(#loc1)
    %cst_3 = arith.constant dense<0.000000e+00> : tensor<1x2048xf32> loc(#loc1)
    %0 = tt.get_program_id x : i32 loc(#loc2)
    %1 = arith.cmpi slt, %0, %c64_i32 : i32 loc(#loc3)
    %2 = tt.make_range {end = 2048 : i32, start = 0 : i32} : tensor<2048xi32> loc(#loc4)
    %3 = tt.expand_dims %2 {axis = 0 : i32} : tensor<2048xi32> -> tensor<1x2048xi32> loc(#loc5)
    %4 = arith.muli %0, %c3584_i32 : i32 loc(#loc6)
    %5 = tt.splat %4 : i32 -> tensor<1x2048xi32> loc(#loc7)
    %6 = tt.splat %arg0 : !tt.ptr<bf16> -> tensor<1x2048x!tt.ptr<bf16>> loc(#loc8)
    %7 = tt.splat %1 : i1 -> tensor<1x2048xi1> loc(#loc9)
    %8 = scf.for %arg5 = %c0_i32 to %c3584_i32 step %c2048_i32 iter_args(%arg6 = %cst_3) -> (tensor<1x2048xf32>)  : i32 {
      %21 = tt.splat %arg5 : i32 -> tensor<1x2048xi32> loc(#loc11)
      %22 = arith.addi %21, %3 : tensor<1x2048xi32> loc(#loc11)
      %23 = arith.cmpi slt, %22, %cst_2 : tensor<1x2048xi32> loc(#loc12)
      %24 = arith.addi %22, %5 : tensor<1x2048xi32> loc(#loc7)
      %25 = tt.addptr %6, %24 : tensor<1x2048x!tt.ptr<bf16>>, tensor<1x2048xi32> loc(#loc8)
      %26 = arith.andi %23, %7 : tensor<1x2048xi1> loc(#loc9)
      %27 = tt.load %25, %26, %cst evictionPolicy = evict_last : tensor<1x2048x!tt.ptr<bf16>> loc(#loc13)
      %28 = arith.extf %27 : tensor<1x2048xbf16> to tensor<1x2048xf32> loc(#loc14)
      %29 = arith.mulf %28, %28 : tensor<1x2048xf32> loc(#loc15)
      %30 = arith.addf %arg6, %29 : tensor<1x2048xf32> loc(#loc16)
      %31 = arith.select %26, %30, %arg6 : tensor<1x2048xi1>, tensor<1x2048xf32> loc(#loc17)
      scf.yield %31 : tensor<1x2048xf32> loc(#loc18)
    } loc(#loc10)
    %9 = "tt.reduce"(%8) <{axis = 1 : i32}> ({
    ^bb0(%arg5: f32 loc(callsite(#loc1 at #loc20)), %arg6: f32 loc(callsite(#loc1 at #loc20))):
      %21 = arith.addf %arg5, %arg6 : f32 loc(#loc46)
      tt.reduce.return %21 : f32 loc(#loc43)
    }) : (tensor<1x2048xf32>) -> tensor<1xf32> loc(#loc43)
    %10 = tt.expand_dims %9 {axis = 1 : i32} : tensor<1xf32> -> tensor<1x1xf32> loc(#loc22)
    %11 = arith.muli %0, %c3584_i32 : i32 loc(#loc23)
    %12 = tt.splat %11 : i32 -> tensor<1x2048xi32> loc(#loc24)
    %13 = tt.splat %arg0 : !tt.ptr<bf16> -> tensor<1x2048x!tt.ptr<bf16>> loc(#loc25)
    %14 = tt.splat %1 : i1 -> tensor<1x2048xi1> loc(#loc26)
    %15 = tt.splat %arg1 : !tt.ptr<bf16> -> tensor<1x2048x!tt.ptr<bf16>> loc(#loc27)
    %16 = arith.divf %10, %cst_1 : tensor<1x1xf32> loc(#loc28)
    %17 = arith.addf %16, %cst_0 : tensor<1x1xf32> loc(#loc29)
    %18 = tt.extern_elementwise %17 {libname = "", libpath = "", pure = true, symbol = "__nv_rsqrtf"} : (tensor<1x1xf32>) -> tensor<1x1xf32> loc(#loc30)
    %19 = tt.broadcast %18 : tensor<1x1xf32> -> tensor<1x2048xf32> loc(#loc31)
    %20 = tt.splat %arg2 : !tt.ptr<bf16> -> tensor<1x2048x!tt.ptr<bf16>> loc(#loc32)
    scf.for %arg5 = %c0_i32 to %c3584_i32 step %c2048_i32  : i32 {
      %21 = tt.splat %arg5 : i32 -> tensor<1x2048xi32> loc(#loc34)
      %22 = arith.addi %21, %3 : tensor<1x2048xi32> loc(#loc34)
      %23 = arith.cmpi slt, %22, %cst_2 : tensor<1x2048xi32> loc(#loc35)
      %24 = arith.addi %22, %12 : tensor<1x2048xi32> loc(#loc24)
      %25 = tt.addptr %13, %24 : tensor<1x2048x!tt.ptr<bf16>>, tensor<1x2048xi32> loc(#loc25)
      %26 = arith.andi %23, %14 : tensor<1x2048xi1> loc(#loc26)
      %27 = tt.load %25, %26, %cst evictionPolicy = evict_first : tensor<1x2048x!tt.ptr<bf16>> loc(#loc36)
      %28 = arith.extf %27 : tensor<1x2048xbf16> to tensor<1x2048xf32> loc(#loc37)
      %29 = tt.addptr %15, %22 : tensor<1x2048x!tt.ptr<bf16>>, tensor<1x2048xi32> loc(#loc27)
      %30 = tt.load %29, %23, %cst evictionPolicy = evict_last : tensor<1x2048x!tt.ptr<bf16>> loc(#loc38)
      %31 = arith.extf %30 : tensor<1x2048xbf16> to tensor<1x2048xf32> loc(#loc39)
      %32 = arith.mulf %28, %19 : tensor<1x2048xf32> loc(#loc31)
      %33 = arith.mulf %32, %31 : tensor<1x2048xf32> loc(#loc40)
      %34 = tt.addptr %20, %24 : tensor<1x2048x!tt.ptr<bf16>>, tensor<1x2048xi32> loc(#loc32)
      %35 = arith.truncf %33 : tensor<1x2048xf32> to tensor<1x2048xbf16> loc(#loc41)
      tt.store %34, %35, %26 : tensor<1x2048x!tt.ptr<bf16>> loc(#loc41)
    } loc(#loc33)
    tt.return loc(#loc42)
  } loc(#loc)
} loc(#loc)
#loc2 = loc("/home/ljp/llm/Diffulex/tmp/torchinductor_ljp/gq/cgq7hprqcvvvjblx2eovzw3mw6aprhfnjbb4qmyda5obhdaw4sts.py":22:28)
#loc3 = loc("/home/ljp/llm/Diffulex/tmp/torchinductor_ljp/gq/cgq7hprqcvvvjblx2eovzw3mw6aprhfnjbb4qmyda5obhdaw4sts.py":24:21)
#loc4 = loc("/home/ljp/llm/Diffulex/tmp/torchinductor_ljp/gq/cgq7hprqcvvvjblx2eovzw3mw6aprhfnjbb4qmyda5obhdaw4sts.py":25:25)
#loc5 = loc("/home/ljp/llm/Diffulex/tmp/torchinductor_ljp/gq/cgq7hprqcvvvjblx2eovzw3mw6aprhfnjbb4qmyda5obhdaw4sts.py":25:33)
#loc6 = loc("/home/ljp/llm/Diffulex/tmp/torchinductor_ljp/gq/cgq7hprqcvvvjblx2eovzw3mw6aprhfnjbb4qmyda5obhdaw4sts.py":32:44)
#loc7 = loc("/home/ljp/llm/Diffulex/tmp/torchinductor_ljp/gq/cgq7hprqcvvvjblx2eovzw3mw6aprhfnjbb4qmyda5obhdaw4sts.py":32:39)
#loc8 = loc("/home/ljp/llm/Diffulex/tmp/torchinductor_ljp/gq/cgq7hprqcvvvjblx2eovzw3mw6aprhfnjbb4qmyda5obhdaw4sts.py":32:34)
#loc9 = loc("/home/ljp/llm/Diffulex/tmp/torchinductor_ljp/gq/cgq7hprqcvvvjblx2eovzw3mw6aprhfnjbb4qmyda5obhdaw4sts.py":32:57)
#loc10 = loc("/home/ljp/llm/Diffulex/tmp/torchinductor_ljp/gq/cgq7hprqcvvvjblx2eovzw3mw6aprhfnjbb4qmyda5obhdaw4sts.py":28:36)
#loc11 = loc("/home/ljp/llm/Diffulex/tmp/torchinductor_ljp/gq/cgq7hprqcvvvjblx2eovzw3mw6aprhfnjbb4qmyda5obhdaw4sts.py":29:27)
#loc12 = loc("/home/ljp/llm/Diffulex/tmp/torchinductor_ljp/gq/cgq7hprqcvvvjblx2eovzw3mw6aprhfnjbb4qmyda5obhdaw4sts.py":30:25)
#loc13 = loc("/home/ljp/llm/Diffulex/tmp/torchinductor_ljp/gq/cgq7hprqcvvvjblx2eovzw3mw6aprhfnjbb4qmyda5obhdaw4sts.py":32:49)
#loc14 = loc("/home/ljp/llm/Diffulex/tmp/torchinductor_ljp/gq/cgq7hprqcvvvjblx2eovzw3mw6aprhfnjbb4qmyda5obhdaw4sts.py":32:108)
#loc15 = loc("/home/ljp/llm/Diffulex/tmp/torchinductor_ljp/gq/cgq7hprqcvvvjblx2eovzw3mw6aprhfnjbb4qmyda5obhdaw4sts.py":34:22)
#loc16 = loc("/home/ljp/llm/Diffulex/tmp/torchinductor_ljp/gq/cgq7hprqcvvvjblx2eovzw3mw6aprhfnjbb4qmyda5obhdaw4sts.py":36:23)
#loc17 = loc("/home/ljp/llm/Diffulex/tmp/torchinductor_ljp/gq/cgq7hprqcvvvjblx2eovzw3mw6aprhfnjbb4qmyda5obhdaw4sts.py":37:46)
#loc18 = loc("/home/ljp/llm/Diffulex/tmp/torchinductor_ljp/gq/cgq7hprqcvvvjblx2eovzw3mw6aprhfnjbb4qmyda5obhdaw4sts.py":37:8)
#loc19 = loc("/home/ljp/llm/Diffulex/.venv/lib/python3.12/site-packages/triton/language/standard.py":267:36)
#loc21 = loc("/home/ljp/llm/Diffulex/.venv/lib/python3.12/site-packages/triton/language/standard.py":256:15)
#loc22 = loc("/home/ljp/llm/Diffulex/tmp/torchinductor_ljp/gq/cgq7hprqcvvvjblx2eovzw3mw6aprhfnjbb4qmyda5obhdaw4sts.py":38:28)
#loc23 = loc("/home/ljp/llm/Diffulex/tmp/torchinductor_ljp/gq/cgq7hprqcvvvjblx2eovzw3mw6aprhfnjbb4qmyda5obhdaw4sts.py":43:44)
#loc24 = loc("/home/ljp/llm/Diffulex/tmp/torchinductor_ljp/gq/cgq7hprqcvvvjblx2eovzw3mw6aprhfnjbb4qmyda5obhdaw4sts.py":43:39)
#loc25 = loc("/home/ljp/llm/Diffulex/tmp/torchinductor_ljp/gq/cgq7hprqcvvvjblx2eovzw3mw6aprhfnjbb4qmyda5obhdaw4sts.py":43:34)
#loc26 = loc("/home/ljp/llm/Diffulex/tmp/torchinductor_ljp/gq/cgq7hprqcvvvjblx2eovzw3mw6aprhfnjbb4qmyda5obhdaw4sts.py":43:57)
#loc27 = loc("/home/ljp/llm/Diffulex/tmp/torchinductor_ljp/gq/cgq7hprqcvvvjblx2eovzw3mw6aprhfnjbb4qmyda5obhdaw4sts.py":44:35)
#loc28 = loc("/home/ljp/llm/Diffulex/tmp/torchinductor_ljp/gq/cgq7hprqcvvvjblx2eovzw3mw6aprhfnjbb4qmyda5obhdaw4sts.py":47:22)
#loc29 = loc("/home/ljp/llm/Diffulex/tmp/torchinductor_ljp/gq/cgq7hprqcvvvjblx2eovzw3mw6aprhfnjbb4qmyda5obhdaw4sts.py":49:23)
#loc30 = loc("/home/ljp/llm/Diffulex/tmp/torchinductor_ljp/gq/cgq7hprqcvvvjblx2eovzw3mw6aprhfnjbb4qmyda5obhdaw4sts.py":50:32)
#loc31 = loc("/home/ljp/llm/Diffulex/tmp/torchinductor_ljp/gq/cgq7hprqcvvvjblx2eovzw3mw6aprhfnjbb4qmyda5obhdaw4sts.py":51:23)
#loc32 = loc("/home/ljp/llm/Diffulex/tmp/torchinductor_ljp/gq/cgq7hprqcvvvjblx2eovzw3mw6aprhfnjbb4qmyda5obhdaw4sts.py":54:29)
#loc33 = loc("/home/ljp/llm/Diffulex/tmp/torchinductor_ljp/gq/cgq7hprqcvvvjblx2eovzw3mw6aprhfnjbb4qmyda5obhdaw4sts.py":39:36)
#loc34 = loc("/home/ljp/llm/Diffulex/tmp/torchinductor_ljp/gq/cgq7hprqcvvvjblx2eovzw3mw6aprhfnjbb4qmyda5obhdaw4sts.py":40:27)
#loc35 = loc("/home/ljp/llm/Diffulex/tmp/torchinductor_ljp/gq/cgq7hprqcvvvjblx2eovzw3mw6aprhfnjbb4qmyda5obhdaw4sts.py":41:25)
#loc36 = loc("/home/ljp/llm/Diffulex/tmp/torchinductor_ljp/gq/cgq7hprqcvvvjblx2eovzw3mw6aprhfnjbb4qmyda5obhdaw4sts.py":43:49)
#loc37 = loc("/home/ljp/llm/Diffulex/tmp/torchinductor_ljp/gq/cgq7hprqcvvvjblx2eovzw3mw6aprhfnjbb4qmyda5obhdaw4sts.py":43:109)
#loc38 = loc("/home/ljp/llm/Diffulex/tmp/torchinductor_ljp/gq/cgq7hprqcvvvjblx2eovzw3mw6aprhfnjbb4qmyda5obhdaw4sts.py":44:40)
#loc39 = loc("/home/ljp/llm/Diffulex/tmp/torchinductor_ljp/gq/cgq7hprqcvvvjblx2eovzw3mw6aprhfnjbb4qmyda5obhdaw4sts.py":44:91)
#loc40 = loc("/home/ljp/llm/Diffulex/tmp/torchinductor_ljp/gq/cgq7hprqcvvvjblx2eovzw3mw6aprhfnjbb4qmyda5obhdaw4sts.py":53:24)
#loc41 = loc("/home/ljp/llm/Diffulex/tmp/torchinductor_ljp/gq/cgq7hprqcvvvjblx2eovzw3mw6aprhfnjbb4qmyda5obhdaw4sts.py":54:51)
#loc42 = loc("/home/ljp/llm/Diffulex/tmp/torchinductor_ljp/gq/cgq7hprqcvvvjblx2eovzw3mw6aprhfnjbb4qmyda5obhdaw4sts.py":39:4)
#loc43 = loc(callsite(#loc19 at #loc20))
#loc45 = loc(callsite(#loc21 at #loc19))
#loc46 = loc(callsite(#loc45 at #loc20))
